…
ecoder_blocks.6.mlp.fc2.bias', 'decoder_blocks.7.norm1.weight', 'decoder_blocks.7.norm1.bias', 'decoder_blocks.7.attn.qkv.weight', 'decoder_blocks.7.attn.qkv.bias', 'decoder_blocks.7.attn.proj.weight', 'decoder_blocks.7.attn.proj.bias', 'decoder_blocks.7.norm2.weight', 'decoder_blocks.7.norm2.bias', 'decoder_blocks.7.mlp.fc1.weight', 'decoder_blocks.7.mlp.fc1.bias', 'decoder_blocks.7.mlp.fc2.weight', 'decoder_blocks.7.mlp.fc2.bias', 'decoder_norm.weight', 'decoder_norm.bias', 'decoder_pred.weight', 'decoder_pred.bias'])
[17:22:21.350265] Model = ConvViT(
  (patch_embed1): PatchEmbed(
    (proj): Conv2d(3, 256, kernel_size=(4, 4), stride=(4, 4))
    (norm): LayerNorm((256,), eps=1e-05, elementwise_affine=True)
    (act): GELU()
  )
  (patch_embed2): PatchEmbed(
    (proj): Conv2d(256, 384, kernel_size=(2, 2), stride=(2, 2))
    (norm): LayerNorm((384,), eps=1e-05, elementwise_affine=True)
    (act): GELU()
  )
  (patch_embed3): PatchEmbed(
    (proj): Conv2d(384, 768, kernel_size=(2, 2), stride=(2, 2))
    (norm): LayerNorm((768,), eps=1e-05, elementwise_affine=True)
    (act): GELU()
  )
  (patch_embed4): Linear(in_features=768, out_features=768, bias=True)
  (pos_drop): Dropout(p=0.0, inplace=False)
  (blocks1): ModuleList(
    (0): CBlock(
      (norm1): LayerNorm((256,), eps=1e-05, elementwise_affine=True)
      (conv1): Conv2d(256, 256, kernel_size=(1, 1), stride=(1, 1))
      (conv2): Conv2d(256, 256, kernel_size=(1, 1), stride=(1, 1))
      (attn): Conv2d(256, 256, kernel_size=(5, 5), stride=(1, 1), padding=(2, 2), groups=256)
      (drop_path): Identity()
      (norm2): LayerNorm((256,), eps=1e-05, elementwise_affine=True)
      (mlp): CMlp(
        (fc1): Conv2d(256, 1024, kernel_size=(1, 1), stride=(1, 1))
        (act): GELU()
        (fc2): Conv2d(1024, 256, kernel_size=(1, 1), stride=(1, 1))
        (drop): Dropout(p=0.0, inplace=False)
      )
    )
    (1): CBlock(
      (norm1): LayerNorm((256,), eps=1e-05, elementwise_affine=True)
      (conv1): Conv2d(256, 256, kernel_size=(1, 1), stride=(1, 1))
      (conv2): Conv2d(256, 256, kernel_size=(1, 1), stride=(1, 1))
      (attn): Conv2d(256, 256, kernel_size=(5, 5), stride=(1, 1), padding=(2, 2), groups=256)
      (drop_path): DropPath()
      (norm2): LayerNorm((256,), eps=1e-05, elementwise_affine=True)
      (mlp): CMlp(
        (fc1): Conv2d(256, 1024, kernel_size=(1, 1), stride=(1, 1))
        (act): GELU()
        (fc2): Conv2d(1024, 256, kernel_size=(1, 1), stride=(1, 1))
        (drop): Dropout(p=0.0, inplace=False)
      )
    )
  )
  (blocks2): ModuleList(
    (0): CBlock(
      (norm1): LayerNorm((384,), eps=1e-05, elementwise_affine=True)
      (conv1): Conv2d(384, 384, kernel_size=(1, 1), stride=(1, 1))
      (conv2): Conv2d(384, 384, kernel_size=(1, 1), stride=(1, 1))
      (attn): Conv2d(384, 384, kernel_size=(5, 5), stride=(1, 1), padding=(2, 2), groups=384)
      (drop_path): DropPath()
      (norm2): LayerNorm((384,), eps=1e-05, elementwise_affine=True)
      (mlp): CMlp(
        (fc1): Conv2d(384, 1536, kernel_size=(1, 1), stride=(1, 1))
        (act): GELU()
        (fc2): Conv2d(1536, 384, kernel_size=(1, 1), stride=(1, 1))
        (drop): Dropout(p=0.0, inplace=False)
      )
    )
    (1): CBlock(
      (norm1): LayerNorm((384,), eps=1e-05, elementwise_affine=True)
      (conv1): Conv2d(384, 384, kernel_size=(1, 1), stride=(1, 1))
      (conv2): Conv2d(384, 384, kernel_size=(1, 1), stride=(1, 1))
      (attn): Conv2d(384, 384, kernel_size=(5, 5), stride=(1, 1), padding=(2, 2), groups=384)
      (drop_path): DropPath()
      (norm2): LayerNorm((384,), eps=1e-05, elementwise_affine=True)
      (mlp): CMlp(
        (fc1): Conv2d(384, 1536, kernel_size=(1, 1), stride=(1, 1))
        (act): GELU()
        (fc2): Conv2d(1536, 384, kernel_size=(1, 1), stride=(1, 1))
        (drop): Dropout(p=0.0, inplace=False)
      )
    )
  )
  (blocks3): ModuleList(
    (0): Block(
      (norm1): LayerNorm((768,), eps=1e-06, elementwise_affine=True)
      (attn): Attention(
        (qkv): Linear(in_features=768, out_features=2304, bias=True)
        (attn_drop): Dropout(p=0.0, inplace=False)
        (proj): Linear(in_features=768, out_features=768, bias=True)
        (proj_drop): Dropout(p=0.0, inplace=False)
      )
      (drop_path): DropPath()
      (norm2): LayerNorm((768,), eps=1e-06, elementwise_affine=True)
      (mlp): Mlp(
        (fc1): Linear(in_features=768, out_features=3072, bias=True)
        (act): GELU()
        (fc2): Linear(in_features=3072, out_features=768, bias=True)
        (drop): Dropout(p=0.0, inplace=False)
      )
    )
    (1): Block(
      (norm1): LayerNorm((768,), eps=1e-06, elementwise_affine=True)
      (attn): Attention(
        (qkv): Linear(in_features=768, out_features=2304, bias=True)
        (attn_drop): Dropout(p=0.0, inplace=False)
        (proj): Linear(in_features=768, out_features=768, bias=True)
        (proj_drop): Dropout(p=0.0, inplace=False)
      )
      (drop_path): DropPath()
      (norm2): LayerNorm((768,), eps=1e-06, elementwise_affine=True)
      (mlp): Mlp(
        (fc1): Linear(in_features=768, out_features=3072, bias=True)
        (act): GELU()
        (fc2): Linear(in_features=3072, out_features=768, bias=True)
        (drop): Dropout(p=0.0, inplace=False)
      )
    )
    (2): Block(
      (norm1): LayerNorm((768,), eps=1e-06, elementwise_affine=True)
      (attn): Attention(
        (qkv): Linear(in_features=768, out_features=2304, bias=True)
        (attn_drop): Dropout(p=0.0, inplace=False)
        (proj): Linear(in_features=768, out_features=768, bias=True)
        (proj_drop): Dropout(p=0.0, inplace=False)
      )
      (drop_path): DropPath()
      (norm2): LayerNorm((768,), eps=1e-06, elementwise_affine=True)
      (mlp): Mlp(
        (fc1): Linear(in_features=768, out_features=3072, bias=True)
        (act): GELU()
        (fc2): Linear(in_features=3072, out_features=768, bias=True)
        (drop): Dropout(p=0.0, inplace=False)
      )
    )
    (3): Block(
      (norm1): LayerNorm((768,), eps=1e-06, elementwise_affine=True)
      (attn): Attention(
        (qkv): Linear(in_features=768, out_features=2304, bias=True)
        (attn_drop): Dropout(p=0.0, inplace=False)
        (proj): Linear(in_features=768, out_features=768, bias=True)
        (proj_drop): Dropout(p=0.0, inplace=False)
      )
      (drop_path): DropPath()
      (norm2): LayerNorm((768,), eps=1e-06, elementwise_affine=True)
      (mlp): Mlp(
        (fc1): Linear(in_features=768, out_features=3072, bias=True)
        (act): GELU()
        (fc2): Linear(in_features=3072, out_features=768, bias=True)
        (drop): Dropout(p=0.0, inplace=False)
      )
    )
    (4): Block(
      (norm1): LayerNorm((768,), eps=1e-06, elementwise_affine=True)
      (attn): Attention(
        (qkv): Linear(in_features=768, out_features=2304, bias=True)
        (attn_drop): Dropout(p=0.0, inplace=False)
        (proj): Linear(in_features=768, out_features=768, bias=True)
        (proj_drop): Dropout(p=0.0, inplace=False)
      )
      (drop_path): DropPath()
      (norm2): LayerNorm((768,), eps=1e-06, elementwise_affine=True)
      (mlp): Mlp(
        (fc1): Linear(in_features=768, out_features=3072, bias=True)
        (act): GELU()
        (fc2): Linear(in_features=3072, out_features=768, bias=True)
        (drop): Dropout(p=0.0, inplace=False)
      )
    )
    (5): Block(
      (norm1): LayerNorm((768,), eps=1e-06, elementwise_affine=True)
      (attn): Attention(
        (qkv): Linear(in_features=768, out_features=2304, bias=True)
        (attn_drop): Dropout(p=0.0, inplace=False)
        (proj): Linear(in_features=768, out_features=768, bias=True)
        (proj_drop): Dropout(p=0.0, inplace=False)
      )
      (drop_path): DropPath()
      (norm2): LayerNorm((768,), eps=1e-06, elementwise_affine=True)
      (mlp): Mlp(
        (fc1): Linear(in_features=768, out_features=3072, bias=True)
        (act): GELU()
        (fc2): Linear(in_features=3072, out_features=768, bias=True)
        (drop): Dropout(p=0.0, inplace=False)
      )
    )
    (6): Block(
      (norm1): LayerNorm((768,), eps=1e-06, elementwise_affine=True)
      (attn): Attention(
        (qkv): Linear(in_features=768, out_features=2304, bias=True)
        (attn_drop): Dropout(p=0.0, inplace=False)
        (proj): Linear(in_features=768, out_features=768, bias=True)
        (proj_drop): Dropout(p=0.0, inplace=False)
      )
      (drop_path): DropPath()
      (norm2): LayerNorm((768,), eps=1e-06, elementwise_affine=True)
      (mlp): Mlp(
        (fc1): Linear(in_features=768, out_features=3072, bias=True)
        (act): GELU()
        (fc2): Linear(in_features=3072, out_features=768, bias=True)
        (drop): Dropout(p=0.0, inplace=False)
      )
    )
    (7): Block(
      (norm1): LayerNorm((768,), eps=1e-06, elementwise_affine=True)
      (attn): Attention(
        (qkv): Linear(in_features=768, out_features=2304, bias=True)
        (attn_drop): Dropout(p=0.0, inplace=False)
        (proj): Linear(in_features=768, out_features=768, bias=True)
        (proj_drop): Dropout(p=0.0, inplace=False)
      )
      (drop_path): DropPath()
      (norm2): LayerNorm((768,), eps=1e-06, elementwise_affine=True)
      (mlp): Mlp(
        (fc1): Linear(in_features=768, out_features=3072, bias=True)
        (act): GELU()
        (fc2): Linear(in_features=3072, out_features=768, bias=True)
        (drop): Dropout(p=0.0, inplace=False)
      )
    )
    (8): Block(
      (norm1): LayerNorm((768,), eps=1e-06, elementwise_affine=True)
      (attn): Attention(
        (qkv): Linear(in_features=768, out_features=2304, bias=True)
        (attn_drop): Dropout(p=0.0, inplace=False)
        (proj): Linear(in_features=768, out_features=768, bias=True)
        (proj_drop): Dropout(p=0.0, inplace=False)
      )
      (drop_path): DropPath()
      (norm2): LayerNorm((768,), eps=1e-06, elementwise_affine=True)
      (mlp): Mlp(
        (fc1): Linear(in_features=768, out_features=3072, bias=True)
        (act): GELU()
        (fc2): Linear(in_features=3072, out_features=768, bias=True)
        (drop): Dropout(p=0.0, inplace=False)
      )
    )
    (9): Block(
      (norm1): LayerNorm((768,), eps=1e-06, elementwise_affine=True)
      (attn): Attention(
        (qkv): Linear(in_features=768, out_features=2304, bias=True)
        (attn_drop): Dropout(p=0.0, inplace=False)
        (proj): Linear(in_features=768, out_features=768, bias=True)
        (proj_drop): Dropout(p=0.0, inplace=False)
      )
      (drop_path): DropPath()
      (norm2): LayerNorm((768,), eps=1e-06, elementwise_affine=True)
      (mlp): Mlp(
        (fc1): Linear(in_features=768, out_features=3072, bias=True)
        (act): GELU()
        (fc2): Linear(in_features=3072, out_features=768, bias=True)
        (drop): Dropout(p=0.0, inplace=False)
      )
    )
    (10): Block(
      (norm1): LayerNorm((768,), eps=1e-06, elementwise_affine=True)
      (attn): Attention(
        (qkv): Linear(in_features=768, out_features=2304, bias=True)
        (attn_drop): Dropout(p=0.0, inplace=False)
        (proj): Linear(in_features=768, out_features=768, bias=True)
        (proj_drop): Dropout(p=0.0, inplace=False)
      )
      (drop_path): DropPath()
      (norm2): LayerNorm((768,), eps=1e-06, elementwise_affine=True)
      (mlp): Mlp(
        (fc1): Linear(in_features=768, out_features=3072, bias=True)
        (act): GELU()
        (fc2): Linear(in_features=3072, out_features=768, bias=True)
        (drop): Dropout(p=0.0, inplace=False)
      )
    )
  )
  (head): Linear(in_features=768, out_features=1000, bias=True)
  (fc_norm): LayerNorm((768,), eps=1e-06, elementwise_affine=True)
)
[17:22:21.350308] number of params (M): 85.37
[17:22:21.350320] base lr: 5.00e-04
[17:22:21.350325] actual lr: 6.25e-05
[17:22:21.350329] accumulate grad iterations: 1
[17:22:21.350333] effective batch size: 32
[17:22:21.371968] criterion = SoftTargetCrossEntropy()
[17:22:21.371982] Start training for 10 epochs
[17:22:21.394584] log_dir: ./output_dir
[17:22:24.575349] Epoch: [0]  [   0/4022]  eta: 3:33:07  lr: 0.000000  loss: 6.9079 (6.9079)  time: 3.1793  data: 0.6471  max mem: 13163
…
